…
ng unpickling. Arbitrary objects will no longer be allowed to be loaded via this mode unless they are explicitly allowlisted by the user via `torch.serialization.add_safe_globals`. We recommend you start setting `weights_only=True` for any use case where you don't have full control of the loaded file. Please open an issue on GitHub for any issues related to this experimental feature.\n","  combined_model.load_state_dict(torch.load(combined_model_path))\n"]},{"output_type":"execute_result","data":{"text/plain":["CombinedModel(\n","  (cnn_model): ResNet(\n","    (conv1): Sequential(\n","      (0): Conv2d(1, 64, kernel_size=(7, 7), stride=(2, 2), padding=(3, 3), bias=False)\n","      (1): BatchNorm2d(64, eps=1e-05, momentum=0.1, affine=True, track_running_stats=True)\n","      (2): ReLU()\n","      (3): MaxPool2d(kernel_size=3, stride=2, padding=1, dilation=1, ceil_mode=False)\n","    )\n","    (conv2_x): Sequential(\n","      (0): BottleNeck(\n","        (residual_function): Sequential(\n","          (0): Conv2d(64, 64, kernel_size=(1, 1), stride=(1, 1), bias=False)\n","          (1): BatchNorm2d(64, eps=1e-05, momentum=0.1, affine=True, track_running_stats=True)\n","          (2): ReLU()\n","          (3): Conv2d(64, 64, kernel_size=(3, 3), stride=(1, 1), padding=(1, 1), bias=False)\n","          (4): BatchNorm2d(64, eps=1e-05, momentum=0.1, affine=True, track_running_stats=True)\n","          (5): ReLU()\n","          (6): Conv2d(64, 256, kernel_size=(1, 1), stride=(1, 1), bias=False)\n","          (7): BatchNorm2d(256, eps=1e-05, momentum=0.1, affine=True, track_running_stats=True)\n","        )\n","        (relu): ReLU()\n","        (shortcut): Sequential(\n","          (0): Conv2d(64, 256, kernel_size=(1, 1), stride=(1, 1), bias=False)\n","          (1): BatchNorm2d(256, eps=1e-05, momentum=0.1, affine=True, track_running_stats=True)\n","        )\n","      )\n","      (1): BottleNeck(\n","        (residual_function): Sequential(\n","          (0): Conv2d(256, 64, kernel_size=(1, 1), stride=(1, 1), bias=False)\n","          (1): BatchNorm2d(64, eps=1e-05, momentum=0.1, affine=True, track_running_stats=True)\n","          (2): ReLU()\n","          (3): Conv2d(64, 64, kernel_size=(3, 3), stride=(1, 1), padding=(1, 1), bias=False)\n","          (4): BatchNorm2d(64, eps=1e-05, momentum=0.1, affine=True, track_running_stats=True)\n","          (5): ReLU()\n","          (6): Conv2d(64, 256, kernel_size=(1, 1), stride=(1, 1), bias=False)\n","          (7): BatchNorm2d(256, eps=1e-05, momentum=0.1, affine=True, track_running_stats=True)\n","        )\n","        (relu): ReLU()\n","        (shortcut): Sequential()\n","      )\n","    )\n","    (conv3_x): Sequential(\n","      (0): BottleNeck(\n","        (residual_function): Sequential(\n","          (0): Conv2d(256, 128, kernel_size=(1, 1), stride=(1, 1), bias=False)\n","          (1): BatchNorm2d(128, eps=1e-05, momentum=0.1, affine=True, track_running_stats=True)\n","          (2): ReLU()\n","          (3): Conv2d(128, 128, kernel_size=(3, 3), stride=(2, 2), padding=(1, 1), bias=False)\n","          (4): BatchNorm2d(128, eps=1e-05, momentum=0.1, affine=True, track_running_stats=True)\n","          (5): ReLU()\n","          (6): Conv2d(128, 512, kernel_size=(1, 1), stride=(1, 1), bias=False)\n","          (7): BatchNorm2d(512, eps=1e-05, momentum=0.1, affine=True, track_running_stats=True)\n","        )\n","        (relu): ReLU()\n","        (shortcut): Sequential(\n","          (0): Conv2d(256, 512, kernel_size=(1, 1), stride=(2, 2), bias=False)\n","          (1): BatchNorm2d(512, eps=1e-05, momentum=0.1, affine=True, track_running_stats=True)\n","        )\n","      )\n","      (1): BottleNeck(\n","        (residual_function): Sequential(\n","          (0): Conv2d(512, 128, kernel_size=(1, 1), stride=(1, 1), bias=False)\n","          (1): BatchNorm2d(128, eps=1e-05, momentum=0.1, affine=True, track_running_stats=True)\n","          (2): ReLU()\n","          (3): Conv2d(128, 128, kernel_size=(3, 3), stride=(1, 1), padding=(1, 1), bias=False)\n","          (4): BatchNorm2d(128, eps=1e-05, momentum=0.1, affine=True, track_running_stats=True)\n","          (5): ReLU()\n","          (6): Conv2d(128, 512, kernel_size=(1, 1), stride=(1, 1), bias=False)\n","          (7): BatchNorm2d(512, eps=1e-05, momentum=0.1, affine=True, track_running_stats=True)\n","        )\n","        (relu): ReLU()\n","        (shortcut): Sequential()\n","      )\n","      (2): BottleNeck(\n","        (residual_function): Sequential(\n","          (0): Conv2d(512, 128, kernel_size=(1, 1), stride=(1, 1), bias=False)\n","          (1): BatchNorm2d(128, eps=1e-05, momentum=0.1, affine=True, track_running_stats=True)\n","          (2): ReLU()\n","          (3): Conv2d(128, 128, kernel_size=(3, 3), stride=(1, 1), padding=(1, 1), bias=False)\n","          (4): BatchNorm2d(128, eps=1e-05, momentum=0.1, affine=True, track_running_stats=True)\n","          (5): ReLU()\n","          (6): Conv2d(128, 512, kernel_size=(1, 1), stride=(1, 1), bias=False)\n","          (7): BatchNorm2d(512, eps=1e-05, momentum=0.1, affine=True, track_running_stats=True)\n","        )\n","        (relu): ReLU()\n","        (shortcut): Sequential()\n","      )\n","    )\n","    (conv4_x): Sequential(\n","      (0): BottleNeck(\n","        (residual_function): Sequential(\n","          (0): Conv2d(512, 256, kernel_size=(1, 1), stride=(1, 1), bias=False)\n","          (1): BatchNorm2d(256, eps=1e-05, momentum=0.1, affine=True, track_running_stats=True)\n","          (2): ReLU()\n","          (3): Conv2d(256, 256, kernel_size=(3, 3), stride=(2, 2), padding=(1, 1), bias=False)\n","          (4): BatchNorm2d(256, eps=1e-05, momentum=0.1, affine=True, track_running_stats=True)\n","          (5): ReLU()\n","          (6): Conv2d(256, 1024, kernel_size=(1, 1), stride=(1, 1), bias=False)\n","          (7): BatchNorm2d(1024, eps=1e-05, momentum=0.1, affine=True, track_running_stats=True)\n","        )\n","        (relu): ReLU()\n","        (shortcut): Sequential(\n","          (0): Conv2d(512, 1024, kernel_size=(1, 1), stride=(2, 2), bias=False)\n","          (1): BatchNorm2d(1024, eps=1e-05, momentum=0.1, affine=True, track_running_stats=True)\n","        )\n","      )\n","      (1): BottleNeck(\n","        (residual_function): Sequential(\n","          (0): Conv2d(1024, 256, kernel_size=(1, 1), stride=(1, 1), bias=False)\n","          (1): BatchNorm2d(256, eps=1e-05, momentum=0.1, affine=True, track_running_stats=True)\n","          (2): ReLU()\n","          (3): Conv2d(256, 256, kernel_size=(3, 3), stride=(1, 1), padding=(1, 1), bias=False)\n","          (4): BatchNorm2d(256, eps=1e-05, momentum=0.1, affine=True, track_running_stats=True)\n","          (5): ReLU()\n","          (6): Conv2d(256, 1024, kernel_size=(1, 1), stride=(1, 1), bias=False)\n","          (7): BatchNorm2d(1024, eps=1e-05, momentum=0.1, affine=True, track_running_stats=True)\n","        )\n","        (relu): ReLU()\n","        (shortcut): Sequential()\n","      )\n","      (2): BottleNeck(\n","        (residual_function): Sequential(\n","          (0): Conv2d(1024, 256, kernel_size=(1, 1), stride=(1, 1), bias=False)\n","          (1): BatchNorm2d(256, eps=1e-05, momentum=0.1, affine=True, track_running_stats=True)\n","          (2): ReLU()\n","          (3): Conv2d(256, 256, kernel_size=(3, 3), stride=(1, 1), padding=(1, 1), bias=False)\n","          (4): BatchNorm2d(256, eps=1e-05, momentum=0.1, affine=True, track_running_stats=True)\n","          (5): ReLU()\n","          (6): Conv2d(256, 1024, kernel_size=(1, 1), stride=(1, 1), bias=False)\n","          (7): BatchNorm2d(1024, eps=1e-05, momentum=0.1, affine=True, track_running_stats=True)\n","        )\n","        (relu): ReLU()\n","        (shortcut): Sequential()\n","      )\n","      (3): BottleNeck(\n","        (residual_function): Sequential(\n","          (0): Conv2d(1024, 256, kernel_size=(1, 1), stride=(1, 1), bias=False)\n","          (1): BatchNorm2d(256, eps=1e-05, momentum=0.1, affine=True, track_running_stats=True)\n","          (2): ReLU()\n","          (3): Conv2d(256, 256, kernel_size=(3, 3), stride=(1, 1), padding=(1, 1), bias=False)\n","          (4): BatchNorm2d(256, eps=1e-05, momentum=0.1, affine=True, track_running_stats=True)\n","          (5): ReLU()\n","          (6): Conv2d(256, 1024, kernel_size=(1, 1), stride=(1, 1), bias=False)\n","          (7): BatchNorm2d(1024, eps=1e-05, momentum=0.1, affine=True, track_running_stats=True)\n","        )\n","        (relu): ReLU()\n","        (shortcut): Sequential()\n","      )\n","      (4): BottleNeck(\n","        (residual_function): Sequential(\n","          (0): Conv2d(1024, 256, kernel_size=(1, 1), stride=(1, 1), bias=False)\n","          (1): BatchNorm2d(256, eps=1e-05, momentum=0.1, affine=True, track_running_stats=True)\n","          (2): ReLU()\n","          (3): Conv2d(256, 256, kernel_size=(3, 3), stride=(1, 1), padding=(1, 1), bias=False)\n","          (4): BatchNorm2d(256, eps=1e-05, momentum=0.1, affine=True, track_running_stats=True)\n","          (5): ReLU()\n","          (6): Conv2d(256, 1024, kernel_size=(1, 1), stride=(1, 1), bias=False)\n","          (7): BatchNorm2d(1024, eps=1e-05, momentum=0.1, affine=True, track_running_stats=True)\n","        )\n","        (relu): ReLU()\n","        (shortcut): Sequential()\n","      )\n","      (5): BottleNeck(\n","        (residual_function): Sequential(\n","          (0): Conv2d(1024, 256, kernel_size=(1, 1), stride=(1, 1), bias=False)\n","          (1): BatchNorm2d(256, eps=1e-05, momentum=0.1, affine=True, track_running_stats=True)\n","          (2): ReLU()\n","          (3): Conv2d(256, 256, kernel_size=(3, 3), stride=(1, 1), padding=(1, 1), bias=False)\n","          (4): BatchNorm2d(256, eps=1e-05, momentum=0.1, affine=True, track_running_stats=True)\n","          (5): ReLU()\n","          (6): Conv2d(256, 1024, kernel_size=(1, 1), stride=(1, 1), bias=False)\n","          (7): BatchNorm2d(1024, eps=1e-05, momentum=0.1, affine=True, track_running_stats=True)\n","        )\n","        (relu): ReLU()\n","        (shortcut): Sequential()\n","      )\n","      (6): BottleNeck(\n","        (residual_function): Sequential(\n","          (0): Conv2d(1024, 256, kernel_size=(1, 1), stride=(1, 1), bias=False)\n","          (1): BatchNorm2d(256, eps=1e-05, momentum=0.1, affine=True, track_running_stats=True)\n","          (2): ReLU()\n","          (3): Conv2d(256, 256, kernel_size=(3, 3), stride=(1, 1), padding=(1, 1), bias=False)\n","          (4): BatchNorm2d(256, eps=1e-05, momentum=0.1, affine=True, track_running_stats=True)\n","          (5): ReLU()\n","          (6): Conv2d(256, 1024, kernel_size=(1, 1), stride=(1, 1), bias=False)\n","          (7): BatchNorm2d(1024, eps=1e-05, momentum=0.1, affine=True, track_running_stats=True)\n","        )\n","        (relu): ReLU()\n","        (shortcut): Sequential()\n","      )\n","      (7): BottleNeck(\n","        (residual_function): Sequential(\n","          (0): Conv2d(1024, 256, kernel_size=(1, 1), stride=(1, 1), bias=False)\n","          (1): BatchNorm2d(256, eps=1e-05, momentum=0.1, affine=True, track_running_stats=True)\n","          (2): ReLU()\n","          (3): Conv2d(256, 256, kernel_size=(3, 3), stride=(1, 1), padding=(1, 1), bias=False)\n","          (4): BatchNorm2d(256, eps=1e-05, momentum=0.1, affine=True, track_running_stats=True)\n","          (5): ReLU()\n","          (6): Conv2d(256, 1024, kernel_size=(1, 1), stride=(1, 1), bias=False)\n","          (7): BatchNorm2d(1024, eps=1e-05, momentum=0.1, affine=True, track_running_stats=True)\n","        )\n","        (relu): ReLU()\n","        (shortcut): Sequential()\n","      )\n","      (8): BottleNeck(\n","        (residual_function): Sequential(\n","          (0): Conv2d(1024, 256, kernel_size=(1, 1), stride=(1, 1), bias=False)\n","          (1): BatchNorm2d(256, eps=1e-05, momentum=0.1, affine=True, track_running_stats=True)\n","          (2): ReLU()\n","          (3): Conv2d(256, 256, kernel_size=(3, 3), stride=(1, 1), padding=(1, 1), bias=False)\n","          (4): BatchNorm2d(256, eps=1e-05, momentum=0.1, affine=True, track_running_stats=True)\n","          (5): ReLU()\n","          (6): Conv2d(256, 1024, kernel_size=(1, 1), stride=(1, 1), bias=False)\n","          (7): BatchNorm2d(1024, eps=1e-05, momentum=0.1, affine=True, track_running_stats=True)\n","        )\n","        (relu): ReLU()\n","        (shortcut): Sequential()\n","      )\n","      (9): BottleNeck(\n","        (residual_function): Sequential(\n","          (0): Conv2d(1024, 256, kernel_size=(1, 1), stride=(1, 1), bias=False)\n","          (1): BatchNorm2d(256, eps=1e-05, momentum=0.1, affine=True, track_running_stats=True)\n","          (2): ReLU()\n","          (3): Conv2d(256, 256, kernel_size=(3, 3), stride=(1, 1), padding=(1, 1), bias=False)\n","          (4): BatchNorm2d(256, eps=1e-05, momentum=0.1, affine=True, track_running_stats=True)\n","          (5): ReLU()\n","          (6): Conv2d(256, 1024, kernel_size=(1, 1), stride=(1, 1), bias=False)\n","          (7): BatchNorm2d(1024, eps=1e-05, momentum=0.1, affine=True, track_running_stats=True)\n","        )\n","        (relu): ReLU()\n","        (shortcut): Sequential()\n","      )\n","      (10): BottleNeck(\n","        (residual_function): Sequential(\n","          (0): Conv2d(1024, 256, kernel_size=(1, 1), stride=(1, 1), bias=False)\n","          (1): BatchNorm2d(256, eps=1e-05, momentum=0.1, affine=True, track_running_stats=True)\n","          (2): ReLU()\n","          (3): Conv2d(256, 256, kernel_size=(3, 3), stride=(1, 1), padding=(1, 1), bias=False)\n","          (4): BatchNorm2d(256, eps=1e-05, momentum=0.1, affine=True, track_running_stats=True)\n","          (5): ReLU()\n","          (6): Conv2d(256, 1024, kernel_size=(1, 1), stride=(1, 1), bias=False)\n","          (7): BatchNorm2d(1024, eps=1e-05, momentum=0.1, affine=True, track_running_stats=True)\n","        )\n","        (relu): ReLU()\n","        (shortcut): Sequential()\n","      )\n","      (11): BottleNeck(\n","        (residual_function): Sequential(\n","          (0): Conv2d(1024, 256, kernel_size=(1, 1), stride=(1, 1), bias=False)\n","          (1): BatchNorm2d(256, eps=1e-05, momentum=0.1, affine=True, track_running_stats=True)\n","          (2): ReLU()\n","          (3): Conv2d(256, 256, kernel_size=(3, 3), stride=(1, 1), padding=(1, 1), bias=False)\n","          (4): BatchNorm2d(256, eps=1e-05, momentum=0.1, affine=True, track_running_stats=True)\n","          (5): ReLU()\n","          (6): Conv2d(256, 1024, kernel_size=(1, 1), stride=(1, 1), bias=False)\n","          (7): BatchNorm2d(1024, eps=1e-05, momentum=0.1, affine=True, track_running_stats=True)\n","        )\n","        (relu): ReLU()\n","        (shortcut): Sequential()\n","      )\n","      (12): BottleNeck(\n","        (residual_function): Sequential(\n","          (0): Conv2d(1024, 256, kernel_size=(1, 1), stride=(1, 1), bias=False)\n","          (1): BatchNorm2d(256, eps=1e-05, momentum=0.1, affine=True, track_running_stats=True)\n","          (2): ReLU()\n","          (3): Conv2d(256, 256, kernel_size=(3, 3), stride=(1, 1), padding=(1, 1), bias=False)\n","          (4): BatchNorm2d(256, eps=1e-05, momentum=0.1, affine=True, track_running_stats=True)\n","          (5): ReLU()\n","          (6): Conv2d(256, 1024, kernel_size=(1, 1), stride=(1, 1), bias=False)\n","          (7): BatchNorm2d(1024, eps=1e-05, momentum=0.1, affine=True, track_running_stats=True)\n","        )\n","        (relu): ReLU()\n","        (shortcut): Sequential()\n","      )\n","      (13): BottleNeck(\n","        (residual_function): Sequential(\n","          (0): Conv2d(1024, 256, kernel_size=(1, 1), stride=(1, 1), bias=False)\n","          (1): BatchNorm2d(256, eps=1e-05, momentum=0.1, affine=True, track_running_stats=True)\n","          (2): ReLU()\n","          (3): Conv2d(256, 256, kernel_size=(3, 3), stride=(1, 1), padding=(1, 1), bias=False)\n","          (4): BatchNorm2d(256, eps=1e-05, momentum=0.1, affine=True, track_running_stats=True)\n","          (5): ReLU()\n","          (6): Conv2d(256, 1024, kernel_size=(1, 1), stride=(1, 1), bias=False)\n","          (7): BatchNorm2d(1024, eps=1e-05, momentum=0.1, affine=True, track_running_stats=True)\n","        )\n","        (relu): ReLU()\n","        (shortcut): Sequential()\n","      )\n","      (14): BottleNeck(\n","        (residual_function): Sequential(\n","          (0): Conv2d(1024, 256, kernel_size=(1, 1), stride=(1, 1), bias=False)\n","          (1): BatchNorm2d(256, eps=1e-05, momentum=0.1, affine=True, track_running_stats=True)\n","          (2): ReLU()\n","          (3): Conv2d(256, 256, kernel_size=(3, 3), stride=(1, 1), padding=(1, 1), bias=False)\n","          (4): BatchNorm2d(256, eps=1e-05, momentum=0.1, affine=True, track_running_stats=True)\n","          (5): ReLU()\n","          (6): Conv2d(256, 1024, kernel_size=(1, 1), stride=(1, 1), bias=False)\n","          (7): BatchNorm2d(1024, eps=1e-05, momentum=0.1, affine=True, track_running_stats=True)\n","        )\n","        (relu): ReLU()\n","        (shortcut): Sequential()\n","      )\n","      (15): BottleNeck(\n","        (residual_function): Sequential(\n","          (0): Conv2d(1024, 256, kernel_size=(1, 1), stride=(1, 1), bias=False)\n","          (1): BatchNorm2d(256, eps=1e-05, momentum=0.1, affine=True, track_running_stats=True)\n","          (2): ReLU()\n","          (3): Conv2d(256, 256, kernel_size=(3, 3), stride=(1, 1), padding=(1, 1), bias=False)\n","          (4): BatchNorm2d(256, eps=1e-05, momentum=0.1, affine=True, track_running_stats=True)\n","          (5): ReLU()\n","          (6): Conv2d(256, 1024, kernel_size=(1, 1), stride=(1, 1), bias=False)\n","          (7): BatchNorm2d(1024, eps=1e-05, momentum=0.1, affine=True, track_running_stats=True)\n","        )\n","        (relu): ReLU()\n","        (shortcut): Sequential()\n","      )\n","      (16): BottleNeck(\n","        (residual_function): Sequential(\n","          (0): Conv2d(1024, 256, kernel_size=(1, 1), stride=(1, 1), bias=False)\n","          (1): BatchNorm2d(256, eps=1e-05, momentum=0.1, affine=True, track_running_stats=True)\n","          (2): ReLU()\n","          (3): Conv2d(256, 256, kernel_size=(3, 3), stride=(1, 1), padding=(1, 1), bias=False)\n","          (4): BatchNorm2d(256, eps=1e-05, momentum=0.1, affine=True, track_running_stats=True)\n","          (5): ReLU()\n","          (6): Conv2d(256, 1024, kernel_size=(1, 1), stride=(1, 1), bias=False)\n","          (7): BatchNorm2d(1024, eps=1e-05, momentum=0.1, affine=True, track_running_stats=True)\n","        )\n","        (relu): ReLU()\n","        (shortcut): Sequential()\n","      )\n","      (17): BottleNeck(\n","        (residual_function): Sequential(\n","          (0): Conv2d(1024, 256, kernel_size=(1, 1), stride=(1, 1), bias=False)\n","          (1): BatchNorm2d(256, eps=1e-05, momentum=0.1, affine=True, track_running_stats=True)\n","          (2): ReLU()\n","          (3): Conv2d(256, 256, kernel_size=(3, 3), stride=(1, 1), padding=(1, 1), bias=False)\n","          (4): BatchNorm2d(256, eps=1e-05, momentum=0.1, affine=True, track_running_stats=True)\n","          (5): ReLU()\n","          (6): Conv2d(256, 1024, kernel_size=(1, 1), stride=(1, 1), bias=False)\n","          (7): BatchNorm2d(1024, eps=1e-05, momentum=0.1, affine=True, track_running_stats=True)\n","        )\n","        (relu): ReLU()\n","        (shortcut): Sequential()\n","      )\n","      (18): BottleNeck(\n","        (residual_function): Sequential(\n","          (0): Conv2d(1024, 256, kernel_size=(1, 1), stride=(1, 1), bias=False)\n","          (1): BatchNorm2d(256, eps=1e-05, momentum=0.1, affine=True, track_running_stats=True)\n","          (2): ReLU()\n","          (3): Conv2d(256, 256, kernel_size=(3, 3), stride=(1, 1), padding=(1, 1), bias=False)\n","          (4): BatchNorm2d(256, eps=1e-05, momentum=0.1, affine=True, track_running_stats=True)\n","          (5): ReLU()\n","          (6): Conv2d(256, 1024, kernel_size=(1, 1), stride=(1, 1), bias=False)\n","          (7): BatchNorm2d(1024, eps=1e-05, momentum=0.1, affine=True, track_running_stats=True)\n","        )\n","        (relu): ReLU()\n","        (shortcut): Sequential()\n","      )\n","      (19): BottleNeck(\n","        (residual_function): Sequential(\n","          (0): Conv2d(1024, 256, kernel_size=(1, 1), stride=(1, 1), bias=False)\n","          (1): BatchNorm2d(256, eps=1e-05, momentum=0.1, affine=True, track_running_stats=True)\n","          (2): ReLU()\n","          (3): Conv2d(256, 256, kernel_size=(3, 3), stride=(1, 1), padding=(1, 1), bias=False)\n","          (4): BatchNorm2d(256, eps=1e-05, momentum=0.1, affine=True, track_running_stats=True)\n","          (5): ReLU()\n","          (6): Conv2d(256, 1024, kernel_size=(1, 1), stride=(1, 1), bias=False)\n","          (7): BatchNorm2d(1024, eps=1e-05, momentum=0.1, affine=True, track_running_stats=True)\n","        )\n","        (relu): ReLU()\n","        (shortcut): Sequential()\n","      )\n","      (20): BottleNeck(\n","        (residual_function): Sequential(\n","          (0): Conv2d(1024, 256, kernel_size=(1, 1), stride=(1, 1), bias=False)\n","          (1): BatchNorm2d(256, eps=1e-05, momentum=0.1, affine=True, track_running_stats=True)\n","          (2): ReLU()\n","          (3): Conv2d(256, 256, kernel_size=(3, 3), stride=(1, 1), padding=(1, 1), bias=False)\n","          (4): BatchNorm2d(256, eps=1e-05, momentum=0.1, affine=True, track_running_stats=True)\n","          (5): ReLU()\n","          (6): Conv2d(256, 1024, kernel_size=(1, 1), stride=(1, 1), bias=False)\n","          (7): BatchNorm2d(1024, eps=1e-05, momentum=0.1, affine=True, track_running_stats=True)\n","        )\n","        (relu): ReLU()\n","        (shortcut): Sequential()\n","      )\n","      (21): BottleNeck(\n","        (residual_function): Sequential(\n","          (0): Conv2d(1024, 256, kernel_size=(1, 1), stride=(1, 1), bias=False)\n","          (1): BatchNorm2d(256, eps=1e-05, momentum=0.1, affine=True, track_running_stats=True)\n","          (2): ReLU()\n","          (3): Conv2d(256, 256, kernel_size=(3, 3), stride=(1, 1), padding=(1, 1), bias=False)\n","          (4): BatchNorm2d(256, eps=1e-05, momentum=0.1, affine=True, track_running_stats=True)\n","          (5): ReLU()\n","          (6): Conv2d(256, 1024, kernel_size=(1, 1), stride=(1, 1), bias=False)\n","          (7): BatchNorm2d(1024, eps=1e-05, momentum=0.1, affine=True, track_running_stats=True)\n","        )\n","        (relu): ReLU()\n","        (shortcut): Sequential()\n","      )\n","    )\n","    (conv5_x): Sequential(\n","      (0): BottleNeck(\n","        (residual_function): Sequential(\n","          (0): Conv2d(1024, 512, kernel_size=(1, 1), stride=(1, 1), bias=False)\n","          (1): BatchNorm2d(512, eps=1e-05, momentum=0.1, affine=True, track_running_stats=True)\n","          (2): ReLU()\n","          (3): Conv2d(512, 512, kernel_size=(3, 3), stride=(2, 2), padding=(1, 1), bias=False)\n","          (4): BatchNorm2d(512, eps=1e-05, momentum=0.1, affine=True, track_running_stats=True)\n","          (5): ReLU()\n","          (6): Conv2d(512, 2048, kernel_size=(1, 1), stride=(1, 1), bias=False)\n","          (7): BatchNorm2d(2048, eps=1e-05, momentum=0.1, affine=True, track_running_stats=True)\n","        )\n","        (relu): ReLU()\n","        (shortcut): Sequential(\n","          (0): Conv2d(1024, 2048, kernel_size=(1, 1), stride=(2, 2), bias=False)\n","          (1): BatchNorm2d(2048, eps=1e-05, momentum=0.1, affine=True, track_running_stats=True)\n","        )\n","      )\n","      (1): BottleNeck(\n","        (residual_function): Sequential(\n","          (0): Conv2d(2048, 512, kernel_size=(1, 1), stride=(1, 1), bias=False)\n","          (1): BatchNorm2d(512, eps=1e-05, momentum=0.1, affine=True, track_running_stats=True)\n","          (2): ReLU()\n","          (3): Conv2d(512, 512, kernel_size=(3, 3), stride=(1, 1), padding=(1, 1), bias=False)\n","          (4): BatchNorm2d(512, eps=1e-05, momentum=0.1, affine=True, track_running_stats=True)\n","          (5): ReLU()\n","          (6): Conv2d(512, 2048, kernel_size=(1, 1), stride=(1, 1), bias=False)\n","          (7): BatchNorm2d(2048, eps=1e-05, momentum=0.1, affine=True, track_running_stats=True)\n","        )\n","        (relu): ReLU()\n","        (shortcut): Sequential()\n","      )\n","    )\n","    (avg_pool): AdaptiveAvgPool2d(output_size=(1, 1))\n","    (fc): Linear(in_features=2048, out_features=345, bias=True)\n","  )\n","  (rnn_model): Classifier(\n","    (encoder): EncoderRNN(\n","      (lstm): LSTM(3, 2048, batch_first=True, dropout=0.9, bidirectional=True)\n","      (fc_mu): Linear(in_features=4096, out_features=1024, bias=True)\n","      (fc_sigma): Linear(in_features=4096, out_features=1024, bias=True)\n","    )\n","    (fc): Linear(in_features=1024, out_features=345, bias=True)\n","  )\n","  (fc): Linear(in_features=690, out_features=345, bias=True)\n",")"]},"metadata":{},"execution_count":39}],"source":["cnn_model = getResnetModel().to(device)\n","cnn_model.load_state_dict(torch.load(model_path))\n","cnn_model.eval()\n","\n","rnn_model = Classifier(hp.num_classes).to(device)\n","rnn_model.load_state_dict(torch.load(rnnmodel_path))\n","rnn_model.eval()\n","\n","combined_model = CombinedModel(cnn_m
…
